…
        "model.add(layers.Dense(512, activation='relu'))\n",
        "model.add(layers.Dense(1, activation='sigmoid'))\n",
        "model.summary()"
      ],
      "execution_count": 7,
      "outputs": [
        {
          "output_type": "stream",
          "text": [
            "Model: \"sequential_2\"\n",
            "_________________________________________________________________\n",
            "Layer (type)                 Output Shape              Param #   \n",
            "=================================================================\n",
            "conv2d_5 (Conv2D)            (None, 254, 254, 32)      896       \n",
            "_________________________________________________________________\n",
            "max_pooling2d_5 (MaxPooling2 (None, 127, 127, 32)      0         \n",
            "_________________________________________________________________\n",
            "conv2d_6 (Conv2D)            (None, 125, 125, 64)      18496     \n",
            "_________________________________________________________________\n",
            "max_pooling2d_6 (MaxPooling2 (None, 62, 62, 64)        0         \n",
            "_________________________________________________________________\n",
            "conv2d_7 (Conv2D)            (None, 60, 60, 128)       73856     \n",
            "_________________________________________________________________\n",
            "max_pooling2d_7 (MaxPooling2 (None, 30, 30, 128)       0         \n",
            "_________________________________________________________________\n",
            "conv2d_8 (Conv2D)            (None, 28, 28, 128)       147584    \n",
            "_________________________________________________________________\n",
            "max_pooling2d_8 (MaxPooling2 (None, 14, 14, 128)       0         \n",
            "_________________________________________________________________\n",
            "flatten_2 (Flatten)          (None, 25088)             0         \n",
            "_________________________________________________________________\n",
            "dropout_2 (Dropout)          (None, 25088)             0         \n",
            "_________________________________________________________________\n",
            "dense_3 (Dense)              (None, 512)               12845568  \n",
            "_________________________________________________________________\n",
            "dense_4 (Dense)              (None, 1)                 513       \n",
            "=================================================================\n",
            "Total params: 13,086,913\n",
            "Trainable params: 13,086,913\n",
            "Non-trainable params: 0\n",
            "_________________________________________________________________\n"
          ],
          "name": "stdout"
        }
      ]
    },
    {
      "cell_type": "code",
…
